…
Inverted labels: [0 1 0 0 1 1 1 1 0 1]
Any nulls?:  False
[INFO] Building model from scratch...
Model: "model"
__________________________________________________________________________________________________
Layer (type)                    Output Shape         Param #     Connected to                     
==================================================================================================
input_1 (InputLayer)            [(None, 19, 19, 3)]  0                                            
__________________________________________________________________________________________________
conv2d (Conv2D)                 (None, 19, 19, 128)  512         input_1[0][0]                    
__________________________________________________________________________________________________
conv2d_2 (Conv2D)               (None, 19, 19, 96)   12384       conv2d[0][0]                     
__________________________________________________________________________________________________
conv2d_3 (Conv2D)               (None, 19, 19, 16)   2064        conv2d[0][0]                     
__________________________________________________________________________________________________
conv2d_4 (Conv2D)               (None, 19, 19, 16)   2064        conv2d[0][0]                     
__________________________________________________________________________________________________
conv2d_5 (Conv2D)               (None, 19, 19, 16)   2064        conv2d[0][0]                     
__________________________________________________________________________________________________
max_pooling2d (MaxPooling2D)    (None, 19, 19, 128)  0           conv2d[0][0]                     
__________________________________________________________________________________________________
conv2d_1 (Conv2D)               (None, 19, 19, 256)  33024       conv2d[0][0]                     
__________________________________________________________________________________________________
i_3x3 (Conv2D)                  (None, 19, 19, 128)  110720      conv2d_2[0][0]                   
__________________________________________________________________________________________________
i_5x5 (Conv2D)                  (None, 19, 19, 128)  51328       conv2d_3[0][0]                   
__________________________________________________________________________________________________
i_7x7 (Conv2D)                  (None, 19, 19, 128)  100480      conv2d_4[0][0]                   
__________________________________________________________________________________________________
i_9x9 (Conv2D)                  (None, 19, 19, 64)   50240       conv2d_5[0][0]                   
__________________________________________________________________________________________________
conv2d_6 (Conv2D)               (None, 19, 19, 32)   4128        max_pooling2d[0][0]              
__________________________________________________________________________________________________
flatten_1 (Flatten)             (None, 1083)         0           input_1[0][0]                    
__________________________________________________________________________________________________
concatenate (Concatenate)       (None, 19, 19, 736)  0           conv2d_1[0][0]                   
                                                                 i_3x3[0][0]                      
                                                                 i_5x5[0][0]                      
                                                                 i_7x7[0][0]                      
                                                                 i_9x9[0][0]                      
                                                                 conv2d_6[0][0]                   
__________________________________________________________________________________________________
dense_1 (Dense)                 (None, 16)           17344       flatten_1[0][0]                  
__________________________________________________________________________________________________
avg_pooling (AveragePooling2D)  (None, 17, 17, 736)  0           concatenate[0][0]                
__________________________________________________________________________________________________
dropout_1 (Dropout)             (None, 16)           0           dense_1[0][0]                    
__________________________________________________________________________________________________
flatten (Flatten)               (None, 212704)       0           avg_pooling[0][0]                
__________________________________________________________________________________________________
dense_2 (Dense)                 (None, 16)           272         dropout_1[0][0]                  
__________________________________________________________________________________________________
dense (Dense)                   (None, 16)           3403280     flatten[0][0]                    
__________________________________________________________________________________________________
dropout_2 (Dropout)             (None, 16)           0           dense_2[0][0]                    
__________________________________________________________________________________________________
dropout (Dropout)               (None, 16)           0           dense[0][0]                      
__________________________________________________________________________________________________
concatenate_1 (Concatenate)     (None, 32)           0           dropout_2[0][0]                  
                                                                 dropout[0][0]                    
__________________________________________________________________________________________________
dense_3 (Dense)                 (None, 32)           1056        concatenate_1[0][0]              
__________________________________________________________________________________________________
dropout_3 (Dropout)             (None, 32)           0           dense_3[0][0]                    
__________________________________________________________________________________________________
dense_4 (Dense)                 (None, 2)            66          dropout_3[0][0]                  
__________________________________________________________________________________________________
prob (Activation)               (None, 2)            0           dense_4[0][0]                    
==================================================================================================
Total params: 3,791,026
Trainable params: 3,791,026
Non-trainable params: 0
__________________________________________________________________________________________________
creating generator with trainX, trainY of shapes: ((400, 19, 19, 3), (400, 2))
[INFO] compiling model...
…
